search_tree/experiments/CNN/model_50percent.pth (torch, 376743 bytes, 9 tensors)

conv1.weight f4 [64, 1, 3, 3]
00000000: f218 b33d 5d2f a43e 98a4 583d e0a2 8bbd
00000010: ba0c d8bd b279 293d 7075 5c3e 918a a7be
00000020: dafc e8bd ea50 8b3e 61b3 cebd 4f50 38be
00000030: fd67 c13d 4d65 a33d 4190 d23d 28f8 a4bd
00000040: 4ddb 25be e1cc 7b3d 7866 d03d a537 393d
00000050: f379 ae3d a892 a6be 70d2 7f3e 85bd 863d
00000060: 7539 81be 8470 98bd fa39 9abe efc9 8dbe
00000070: b7e6 c53d 0807 8c3e 6547 293e 410c 4dbc
00000080: 9df0 a53e 0b59 e23c a288 6fbe 5062 09bd
00000090: a8a4 173e 96bd 97be f0c7 a6bd e071 99bd
000000a0: 2641 7ebe 8107 5fbe 7e97 a3bd 88f5 423e
000000b0: 6507 6abe 296d 93be 5029 58be 41d5 e33d
000000c0: 9b8e c2bd 9e9b 1abe b2ff ab3b 11f8 993e
000000d0: 0ab2 ef3d 4da5 dcbd 0462 4dbd 8276 6dbe
000000e0: a775 003c 82a5 8bbe b82d 013e 29f2 8dbd
000000f0: 3af8 98be f2a7 bcbc 4cce 26bd 325b 61bd
00000100: d323 d03d 9924 7d3c 8465 4dbe b0a5 ec3d
00000110: 1c52 12be 3992 a33d f239 843e a4e7 6f3e
00000120: 6ba3 a4be 09d8 363e 744a fc3d 3b0c 2b3e
00000130: 063e c43d a9d8 33be efce 583e 9733 5f3e
00000140: 892d 803e fa81 a0be 3615 50be b942 833e
00000150: 4470 dfbd a644 fc3d 21ff 1cbe 4403 9d3e
00000160: 4545 2abe 860f a83e 01e6 6abe 1554 b33d
00000170: a6b6 663e 3d5f 7e3e 2dc6 90be 5533 a23e
00000180: c080 c7bc 55ba a9be 88e8 793e ad9b 643e
00000190: 21d7 8e3e fa69 8bbe c0a2 96be 2607 45be
000001a0: 41ff c43d e2ad 24be 530b 923d 1f15 79be
000001b0: c4db a33d efad e7bd c128 7ebe 2e43 883e
000001c0: 7860 5abe 0e7f d83d 8f22 413c 7473 d53c
000001d0: 2f35 523d a009 6e3e 2664 93be e927 9fbe
000001e0: 156e 80bc 035e e43d ab6a 29be c730 463e
000001f0: ceb1 9e3e a8ea 5b3e d831 04be 6866 813d
00000200: 8d57 27be 1774 95bb 67c1 6dbd 2de9 30bd
00000210: a3f7 093e 112a 403e cfc3 6f3d 3ac0 403e
00000220: 5677 30be bef2 95be ce30 7e3e f2ec a8be
00000230: 9b55 de3d e851 f13d c991 d4bd 43dd 063e
00000240: e498 83bd 5bae 8abe 9964 95be 346c ae3d
00000250: eacb 1d3e 789d 0ebe c4e4 4abe ea08 1cbe
00000260: 185b 9fbe 8a8a 453e ad9f 91be b31b 7e3e
00000270: 224b 58bd 6da2 fcbd fb42 913e b9bd 08be
00000280: 36c6 27be ee6f 6dbc 3d4d bfbc 1687 1b3e
00000290: aa8a 89be 13b3 8ebe 8b00 bb3d 43e6 39be
000002a0: 0743 a1be 2520 dcbd 73de c5bd ef8e f73d
000002b0: 9e51 4a3d cc4a 9b3e 9a78 70be 1491 a33e
000002c0: ad88 24bd 2bff 683e ce8f 803d b9d6 54be
000002d0: 96c5 09bd 4659 4ebe de9d fdba db23 9abe
000002e0: 32e6 863d 81b9 993e 2a9d 15be 0714 6e3d
000002f0: 9a93 dcbd 1586 0ebe 5e47 153e 5620 88be
00000300: 06d8 dd3d 5958 16be e5ac 95be 7003 68be
00000310: 9af5 99bd 01b4 f63d 9ee0 033e 5bce 0f3e
00000320: cb8b 253d 9c3d 283e ee10 20be c002 a1be
00000330: 9459 5bbc 79b2 e63c fb62 9a3d 7738 6cbe
00000340: 1f48 f9bd eb74 97be 86f9 a73d ca98 09be
00000350: 02fe d93c 2d75 75bc d452 9dbe b41e 9a3e
00000360: d88e 643e be7c a63e e1ca a63e 09ef 933e
00000370: 5572 e63d 5101 a4be ba40 9ebe 8684 b9bd
00000380: 46d3 6c3e e8c0 92be ed6f 1f3e 3c39 a43e
00000390: dafc 0ebe 8369 923e fa2b 363e 2b1b 61bd
000003a0: b2f1 773e b8b1 5fbe 3278 29bc 703e 713e
000003b0: d9e1 90be 825c 813e ed91 63be c764 a63d
000003c0: 7df3 88ba 4d0a 2d3e 5d53 94bd 944d 77bd
000003d0: 4dba 0abe 3872 733e af65 92be f512 993e
000003e0: 71e4 95bd 73d8 003e e02c 41bd e64f 14be
000003f0: 5025 82bd 0054 a9bb a7ab 2dbd c0fd 87be
0.08744992 0.32067385 0.052891344 -0.06818175 -0.105493024 0.041375823 0.21529174 -0.32722905
-0.113763526 0.2721017 -0.100928076 -0.17999385 0.09443662 0.07978306 0.102814205 -0.080551445
-0.16196938 0.061474685 0.10175794 0.045219082 0.08519354 -0.32533765 0.2498262 0.06579117
-0.2523915 -0.07443336 -0.30122358 -0.27693126 0.09663146 0.27349114 0.16531141 -0.012515129
0.32410136 0.02763035 -0.23391965 -0.033541024 0.14808905 -0.2963683 -0.08143604 -0.07492423
-0.2482954 -0.21780206 -0.07987879 0.19038975 -0.22854383 -0.2879422 -0.2110951 0.11124659
-0.09499856 -0.15098426 0.005248987 0.30072072 0.1170388 -0.10773716 -0.050142303 -0.23189738
0.0078405505 -0.2727471 0.12615097 -0.06930954 -0.29876882 -0.023029301 -0.040724084 -0.05501861
0.10163083 0.01545062 -0.20058256 0.1155504 -0.14289135 0.07986874 0.2582546 0.23428208
-0.32155928 0.17855848 0.12318888 0.16703884 0.095821425 -0.17563118 0.21172689 0.21797024
0.2503474 -0.31349164 -0.20320591 0.25636843 -0.10910085 0.12317781 -0.15331699 0.30666554
-0.16627987 0.32824343 -0.22939302 0.08756272 0.22530612 0.24841018 -0.28276196 0.31679788
-0.024353385 -0.33149973 0.2440511 0.2232501 0.27898505 -0.2722929 -0.29421043 -0.19241008
0.09618998 -0.16081956 0.07131066 -0.24324463 0.08000901 -0.11312472 -0.24820234 0.26613754
-0.21325862 0.10571109 0.011788025 0.026056029 0.05132025 0.23245859 -0.28787345 -0.31085137
-0.015677491 0.11150744 -0.16544597 0.19354545 0.3099503 0.21476233 -0.12909639 0.063183606
-0.16341992 -0.004560958 -0.05804577 -0.043191124 0.13473372 0.18766047 0.058536347 0.18823329
-0.17233023 -0.2928676 0.24823305 -0.32993275 0.10856172 0.117832005 -0.10379369 0.13170342
-0.06425646 -0.27086148 -0.29178312 0.08516732 0.15409818 -0.13927257 -0.1981383 -0.15237775
-0.31124187 0.1929113 -0.28442135 0.24815254 -0.052806027 -0.12335668 0.28371415 -0.13353623
-0.16384205 -0.014492018 -0.02335226 0.1518825 -0.26863605 -0.27870998 0.09130963 -0.18154244
-0.3149645 -0.107483186 -0.096615694 0.12087809 0.049394242 0.30330503 -0.23483506 0.31946623
-0.040169407 0.22753589 0.062774286 -0.20785035 -0.0336357 -0.20151243 -0.0019349416 -0.3010548
0.06586875 0.3002434 -0.14610735 0.05812457 -0.1077034 -0.13918336 0.14578006 -0.2658717
0.10832219 -0.1468214 -0.2923347 -0.22657561 -0.07517548 0.12046052 0.12878653 0.14043562
0.04041652 0.16429752 -0.15631458 -0.3144741 -0.013388056 0.028161274 0.0753841 -0.23068415
-0.12171959 -0.2958139 0.0820189 -0.1343719 0.026610378 -0.01498155 -0.30727255 0.3010155
0.22320116 0.32517046 0.3257666 0.28893307 0.11252276 -0.32032254 -0.30908757 -0.0905848
0.2312747 -0.286628 0.1557004 0.32074916 -0.13963643 0.28596124 0.17790213 -0.05495755
0.24213293 -0.21845138 -0.010343598 0.23558974 -0.28297308 0.2526589 -0.22223635 0.081246905
-0.0010448542 0.1689846 -0.07242463 -0.06037672 -0.1354763 0.2377404 -0.28593203 0.29897276
-0.07318962 0.12582569 -0.047161937 -0.14483604 -0.06354773 -0.0051674843 -0.04240003 -0.26560783

conv1.bias f4 [64]
00000000: 57e8 e43d a320 563e df71 f6bc ebdb 173e
00000010: 3019 95be 69cf 0fbe 0243 e8bd 896e 873e
00000020: 9cc6 df3d 4386 8a3e 7ea1 6a3e 9593 873e
00000030: 9e98 48bc bc8a 6d3d 05fb 20be 2b7f 3cbe
00000040: 3a88 25be f3a7 cbbb 6d73 25be 03fa 82be
00000050: 7bab 0dbe 22d9 3cbe 012b 6f3a 1ad7 8f3d
00000060: 0d7d 76be b3a1 20be 70b6 76bc 1392 24be
00000070: 7cf6 533e 149b 693e c72e 593e 2fce 0d3e
00000080: 55f7 48be 8bdb 1f3e e7a7 80bd ec35 94be
00000090: 06a2 debd e741 f73d 84cb 803e ad80 6cbe
000000a0: efdf 993e d35c 53be 7c82 7f3e 834f 333e
000000b0: 8988 90be 5ace c23d 2d76 72be 4549 8dbe
000000c0: c3f2 87be b9c7 1e3e 620c 12be 8f7c 773e
000000d0: 0e14 ac3d f502 a43e e700 b93d 22e7 28bc
000000e0: 0279 7c3e 868f d4bd 620c 1a3d 30e1 ff3c
000000f0: 70ee 943e ff57 a03e 33a5 5cbe 5456 9c3e
0.11177128 0.20910887 -0.030083595 0.14829986 -0.2912078 -0.14043964 -0.11340906 0.2645152
0.109265536 0.2705556 0.22913167 0.26479784 -0.012243418 0.057993636 -0.15720756 -0.18407886
-0.16165248 -0.0062150895 -0.16157313 -0.2558137 -0.13834946 -0.18442205 0.00091235345 0.07023449
-0.2407114 -0.15686683 -0.015058145 -0.16071348 0.20699495 0.22813064 0.2120925 0.13848184
-0.196256 0.15611093 -0.06282025 -0.2894739 -0.10870747 0.12073117 0.2515527 -0.23095961
0.3005366 -0.20640878 0.2495212 0.175108 -0.28229168 0.09512015 -0.23677893 -0.27594963
-0.265524 0.15505876 -0.14262536 0.24168609 0.08402263 0.32033506 0.09033375 -0.010309013
0.24655536 -0.103789374 0.037609465 0.031235307 0.29088163 0.31317136 -0.21547394 0.30534613

conv2.weight f4 [128, 64, 3, 3]
00000000: ffeb 6e3c fa3b eabc ed04 a8bc 0d92 c2ba
00000010: 08ca f93c a3b9 f93c a31b 0f3d cde6 a53c
00000020: 9821 85bc 4022 a1bc 07ab a6bc 6f53 e9bc
00000030: 9f53 9bbc 9179 373c 8e20 1cbd f74c 0ebd
00000040: e744 c83c e620 b8bb 0fc0 9dbb 1ab8 0dbc
00000050: 67d4 8cbc 9e90 ed3c c7a1 8fbb 7d88 e8bc
00000060: 8f91 3c3c 5c6e 0a3b befd 12bd d278 063d
00000070: d998 a13c 625b 03bd efcc 7dbc dcec 193c
00000080: b3db 2fbc 2e5a 4ebc 33a7 ba3c f178 15bd
00000090: 8e07 553c 7f26 1dbd be6c 5a3c 9284 89bc
000000a0: 3d0d 0b3d cd5d fabc 8ab3 67bc 4d7b 90bc
000000b0: de98 fc3a cad9 0abd 21c3 e8bc 3c9b bb3b
000000c0: 6517 b6bc d8cd c7bc 3bd8 0dbc 46cb 0d3c
000000d0: ef5c 7d3c 7d03 dabb 0a7a 09bd d95f 483c
000000e0: b57e f8ba 0652 863b abaa 69bc 67fc 183d
000000f0: c2f5 02bc 27f3 ddbc c125 2fbd 4a69 4bbc
00000100: 3966 ee3c 75eb cdb9 5f40 44bc 187b f9bb
00000110: 6a26 9f3c 2025 4a3b 92a8 fb3a 01be 40bd
00000120: 3dd7 c63c c1c3 15bd 7b1c 0fbd 93a9 b03c
00000130: 2941 1639 c3bd d43c e9c2 3f3b c0a3 4fbc
00000140: 71c6 f63c 0462 b53b 9dff fc3c fceb 223c
00000150: f09b 12bd 8cd1 143d fab8 f9bc 1ba3 79bc
00000160: c8b7 febc c131 2fbd b8d8 37ba daf9 e0bc
00000170: eea9 6e3b f643 00bd 998d 173d de09 15ba
00000180: 7a3f a7bc ed2f ee3b 418b bb3c adfe b03c
00000190: 3617 63bc 3bc5 ac3c 0519 9bbb 6116 1ebd
000001a0: a7a7 f53c d478 0fbc 1274 e83c 85fa 213c
000001b0: 7e3b ccbc 9035 fcbc e1d3 18bd 6629 2dbd
000001c0: 593b 273c b556 073d b639 a53c ef76 19bd
000001d0: dd6a a2bc 3997 ebbc f1a9 303c ec35 073d
000001e0: 5588 90bb 7bfb cf3c 2321 1b3c ae8b ae3c
000001f0: 2a18 8d3c 243a 063c eff8 903b 9e99 0d3d
00000200: 821d 063d f29f edbc bb73 143d 5f1d 163d
00000210: 562a 583c cefe 663c 4bb2 81bc d150 253d
00000220: cd6a 2cbd 499a 9d3c 0c70 8bbc b1c3 ddbc
00000230: f8ac 79bc 2391 b73b e751 2dbd 1d80 50bc
00000240: 8072 5a3c 77fc a63a 3a39 03bb 844d cabc
00000250: ec68 cebb 1dd0 433c 294f 193d c98a 023c
00000260: cfc0 fabc 042e 13bd 3ff3 003d 8e4e ad3b
00000270: f967 98bc f222 083c 51b1 8abc eaed 24bc
00000280: 8956 163c d08e 9dba 28b7 61bc 27e4 8ebc
00000290: 69f4 ad3c bdef d93c 768e 6ebc c982 2ebb
000002a0: 422b 84bc 579b e33c dd3b 47bc ff0f b03c
000002b0: f23c 67bc d7a7 083c 5860 d138 0f8b 123d
000002c0: b6f3 1e3d b777 0a3d 2f87 0bbd 190b c0bc
000002d0: 4dab f0bc da14 15bd 9938 1abd 4b61 eabb
000002e0: 9775 85bc 7787 2bbd c4cf 033d e481 803c
000002f0: b765 d63c 50bb cbbb c12f 28bc 14c9 fd3c
00000300: 84f2 f0bb d16b d63c 077a 053d 6192 72ba
00000310: 7ab0 003c fced 32bd 9cd2 983c 8665 17bd
00000320: 5c4e 483c 43ce 18bd e3df 0bbd 15a3 f23c
00000330: 868e 983c 858d 833c 6591 efbc f653 313c
00000340: 69e2 d33c f76e 3d3c d22a 123c 6f09 afbc
00000350: ffbb 683a 8e92 fe3c 41e8 88bc fafb 81bc
00000360: c789 933c 2d5b 2d3b d368 39bd ddb4 363c
00000370: a04d eb3a 7fb2 963a ec63 2ebc 1f2b 703c
00000380: a690 083d d070 eabc 7f10 1c3d 874a 133d
00000390: e123 e93c 3791 1ebc 9dd5 b93c 2cab d33c
000003a0: 710e 53bb acfd 99bc 1003 153d b977 0bbd
000003b0: 1f34 833c 63fa b4bc 7071 a7ba 3699 8ebb
000003c0: dd75 123d ad93 e3bb 67ff fbbc 78d0 06bd
000003d0: 8c1f 92bc 18a6 db3c 071b 98bb bea9 b8bc
000003e0: e3a8 ac3c 65eb 06bd a112 c03c 56bb 24bd
000003f0: 0d28 323b 29ec 26bc bd5f 04bd 2b80 0e3d
0.014582633 -0.028593052 -0.020510161 -0.0014844552 0.030491844 0.030484026 0.034938466 0.020251656
-0.01625137 -0.019669652 -0.020345224 -0.028482167 -0.018960772 0.011198417 -0.038116984 -0.03474137
0.024446918 -0.005619156 -0.004814155 -0.00864985 -0.017191125 0.028999623 -0.004383299 -0.028385395
0.011509313 0.0021122908 -0.03588652 0.032830067 0.019726204 -0.03206957 -0.0154907545 0.009394851
-0.010733533 -0.012594743 0.022784805 -0.03649229 0.013002289 -0.03836679 0.01333159 -0.016786847
0.033948172 -0.030562306 -0.014141927 -0.01763692 0.0019271632 -0.033899106 -0.028413357 0.0057252925
-0.022227952 -0.024390146 -0.00865751 0.008654421 0.015464052 -0.006653248 -0.03356365 0.012229883
-0.001895866 0.0040991334 -0.014261882 0.037350085 -0.007993164 -0.027093483 -0.042760614 -0.01241524
0.029101478 -0.00039276076 -0.011978238 -0.007613551 0.019427497 0.0030844882 0.0019200018 -0.0470562
0.024272555 -0.03656364 -0.03493927 0.021565234 0.00014329389 0.025969392 0.0029260463 -0.012673318
0.030123921 0.005535366 0.030883605 0.009943958 -0.035793245 0.036332652 -0.030483712 -0.015236641
-0.031093493 -0.04277206 -0.00070131896 -0.027462889 0.0036417204 -0.031314813 0.037000272 -0.0005685369
-0.02041601 0.007268897 0.02289355 0.021605814 -0.013860514 0.02109014 -0.004733207 -0.03859556
0.02998717 -0.008756835 0.02837566 0.009886389 -0.024930712 -0.03078726 -0.03731144 -0.04227581
0.010207021 0.033041675 0.02016912 -0.03746694 -0.019826347 -0.028758632 0.010782705 0.03301041
-0.0044107833 0.02538847 0.00946835 0.021306839 0.017223436 0.008192573 0.0044242064 0.03457033
0.032742985 -0.029006932 0.03624318 0.036649104 0.013193687 0.014098836 -0.015832087 0.040360276
-0.04209404 0.019238608 -0.017021202 -0.027070852 -0.015238993 0.0056020184 -0.042314436 -0.012725857
0.013332963 0.0012740035 -0.0020023123 -0.024695165 -0.0062991288 0.011951474 0.03742901 0.007967659
-0.030609516 -0.035932556 0.031481978 0.0052889055 -0.018604266 0.008309113 -0.016930254 -0.010066489
0.009175905 -0.0012020711 -0.013776578 -0.017442776 0.021234708 0.026603574 -0.0145603325 -0.0026628247
-0.016133908 0.027784033 -0.012160269 0.021492003 -0.014113652 0.008340797 9.983842e-05 0.035777148
0.03880664 0.033805575 -0.034064468 -0.023442792 -0.029378558 -0.03639684 -0.037651632 -0.0071527115
-0.016291423 -0.041877236 0.032180563 0.015686937 0.026171548 -0.0062173977 -0.010265292 0.03097967
-0.007353129 0.026174458 0.032587077 -0.00092533795 0.007854575 -0.04368399 0.018655114 -0.036962055
0.012225714 -0.03730608 -0.034149062 0.02961878 0.018622648 0.016058693 -0.029244134 0.0108232405
0.025864797 0.011562101 0.008921342 -0.021366803 0.0008878111 0.031075742 -0.01671231 -0.015867222
0.018010033 0.002645205 -0.045265984 0.01115152 0.0017952211 0.0011497288 -0.01064394 0.014658718
0.033341072 -0.028618246 0.03810167 0.035959747 0.028459491 -0.009678177 0.022684867 0.025838457
-0.0032204653 -0.018797718 0.036379874 -0.034049723 0.016016064 -0.02209205 -0.0012774896 -0.0043517603
0.035756934 -0.0069450946 -0.030761434 -0.032913655 -0.017837308 0.026812598 -0.004641894 -0.022541877
0.021076625 -0.032939333 0.023446383 -0.04021772 0.0027184517 -0.010188141 -0.032317866 0.0347902

conv2.bias f4 [128]
00000000: 7c4c bbbc e8ae cc3c 2f6f 83bb cffe d83c
00000010: a6bc cebc b7c3 e1bc 6e31 8ebb f02c 003d
00000020: f40d 23bd d68a 1dbc 3ec2 243d 156a b93c
00000030: 20c9 1a3d 1d6f 1d3d c7d8 91bc bbd1 63bc
00000040: 840f b7bb d870 ccbc 1cdb 16bc fa23 93bc
00000050: 6edf bd3b 7a42 e93c 9220 2f3c 8f47 e0bb
00000060: a399 c33b 3787 d7bc c863 66bc 0a32 293d
00000070: 4687 e83c 98a8 c3bc a05f e4bc 3cd8 b33c
00000080: 6939 b9bc 2c8c 9cbc f389 c93c c20b 0d3d
00000090: 000f a13c 5a45 1dbb 478b adbc 9c93 003b
000000a0: ab3b b23c b598 f13c a5ad 19bd 7272 413c
000000b0: 33a3 fb3c 9f96 0b3d 0070 02bd dad0 ab3c
000000c0: ddee 213d bb38 923c a9f8 52bc a88a 5e3c
000000d0: 5172 17bc 7f35 87bc a36a 0bbc 9b2b b43c
000000e0: bc03 753c 330c e83b c784 ff3c 3805 2dbc
000000f0: 2bb2 c03c 66ca 94bb f059 ea3a 8296 c33c
00000100: 6f20 0e3d e9e0 2bbb 302e d73c 42cb 18bd
00000110: d99a aebc e163 853c 570c 013d 7c86 a63c
00000120: 8ade 13bd a52a 14bd efaf bcbc e6fa c4bc
00000130: e3fc 0b3d 204d 373c 8a38 7c3c 9cfc fcb7
00000140: 101f bfbc 9803 3a3c 3b88 e1bc 44ad 043d
00000150: 89d2 0f3d 3007 793b 123c f83c 00d1 b8bc
00000160: 693b debc c7f6 f9bc 53ec 9fbc ab76 093d
00000170: 379e cfbc 6433 a63c f171 a2bc 33aa 9f38
00000180: 4953 213d c8a1 553c 226e afbc 4849 cc3b
00000190: cb50 753b 58cf 18bc 5783 f3bc a7ad f23c
000001a0: 4c6a 123d c6f3 4a3c bd45 e1bc c692 a2bc
000001b0: 883b 403c 4f44 babc d3eb d53c bf3b 193d
000001c0: a489 043b b145 343c 5a12 61bc d04e c2bc
000001d0: a68f 26bc a5bc 203d ac86 003d 1b4a 01bd
000001e0: d0f1 f4bb d243 f639 a4f1 d0bb ac36 b63c
000001f0: 6e80 a53c 811a 123b 10ae dd3c 411e 5ebb
-0.022863619 0.024985746 -0.004011057 0.02648869 -0.025236439 -0.027559144 -0.0043393886 0.031292856
-0.03980823 -0.009615621 0.040224306 0.022633592 0.037789464 0.038436044 -0.017803563 -0.013904984
-0.0055865664 -0.024956152 -0.009207513 -0.01796149 0.005794457 0.028474081 0.010688918 -0.006844468
0.0059692427 -0.026309593 -0.014061876 0.041307487 0.028384816 -0.023884103 -0.027877629 0.021953695
-0.022610383 -0.019109808 0.024601912 0.03443504 0.019660473 -0.0023997636 -0.021184577 0.0019619232
0.021756968 0.029491762 -0.037519116 0.011807071 0.030717468 0.03407919 -0.031845093 0.020973612
0.03953444 0.017849317 -0.012876668 0.013582863 -0.009243564 -0.016505001 -0.008509311 0.021993449
0.014954504 0.0070815324 0.031191243 -0.010560326 0.023522457 -0.0045407293 0.0017879587 0.023875479
0.0346989 -0.0026226586 0.026267141 -0.037303217 -0.021314071 0.016282978 0.03150591 0.020327799
-0.0361009 -0.03617348 -0.02303311 -0.024045419 0.03417672 0.011187822 0.015394339 -3.0158371e-05
-0.023330241 0.011353396 -0.02753078 0.0323918 0.03511289 0.003799867 0.030302081 -0.022560596
-0.027127938 -0.03051318 -0.019521868 0.033560436 -0.025343997 0.020288177 -0.019829722 7.613413e-05
0.039386068 0.01303906 -0.02141482 0.0062343217 0.003743219 -0.009326778 -0.029725714 0.02962382
0.035745904 0.012387222 -0.027499074 -0.019845378 0.011732943 -0.02273765 0.026113426 0.037410494
0.0020223642 0.011002944 -0.0137372855 -0.023719221 -0.010166084 0.039242405 0.031378433 -0.031564813
-0.0074751154 0.00046971306 -0.006376462 0.022242866 0.020202842 0.002229363 0.027060539 -0.0033892544

fc1.weight f4 [128, 16]
00000000: 24e4 5b3e 0530 573e 8bb8 00bd 969b 983c
00000010: b7fa 473e bd67 d33d 3f37 4dbe 78bc 693d
00000020: de52 973d 7c90 dfbd be73 ad3d 45f8 7cbe
00000030: 1261 363e ef2c 473d c55b 243e 819e 0c3e
00000040: 7a44 4a3e 2ff6 86bd 29f9 563e d3cf 073d
00000050: 8c2d 953d c460 413e 9c53 913c 7334 473e
00000060: 2db7 923d 333b 223e 177d 4c3e 5a36 f73c
00000070: a482 8ebd 141e 883a 9313 713e 1764 7ebd
00000080: c7a8 793e 999d cdbb 97e4 8e3d c24d 9839
00000090: 6b85 3e3d 723a 11bc 9d7a 60be 6f1d 2e3e
000000a0: a13d 70be b856 57be 751f b2bd acae 4e3e
000000b0: 6239 85bd 677f fc3d 243e 6e3d 0359 573d
000000c0: 7f57 6bbe f5d4 3dbe 0d7a 6fbe 20d8 5e3e
000000d0: 179c 003e ab7d c73d 3181 443e e6f9 5c3e
000000e0: 76b9 dcbd 75fb b03d e59d 383e 0f3a 0d3e
000000f0: d3bb 0cbe d61b b7bd 5adf a3bd e142 1ebe
00000100: dca6 30be 5e28 c4bc cb0a 5b3e 9cd7 563e
00000110: 67a8 23be d1e7 6e3e fb3f 0ebe 628a 783e
00000120: 2e5d c23d b13f 36be db9c 3abe 7c0a 9a3d
00000130: 7481 013e d422 68be 43c0 65bd cd1f 80be
00000140: 4a0f 5fbc 89bb 16bd 0920 73be 9dce 673e
00000150: 9565 80be 182c d03d 6365 70be 4c27 b4bd
00000160: 5c21 ac3d d2cb 9e3d 5012 37bd 5ae3 383e
00000170: 3849 d73d 81b5 813d 2aac 32be fd8f 29be
00000180: 8812 2d3d 8e11 4dbe 4ddf 3b3e f998 843b
00000190: eb96 51be c68c 27be daf1 0e3d 6a2f 4fbe
000001a0: 3337 33be 1fe1 45be 99d2 263e fff8 563d
000001b0: 6742 4a3e 0303 3b3e dfc0 2e3e d644 4a3d
000001c0: 77d1 2ebe 3c92 7f3e 1f5a 683e 7573 21be
000001d0: 5d11 0d3e a378 0cbe 240c 513e 2246 ebbd
000001e0: 54e9 74bd 28b2 7fbc f563 ff3c 9c39 543d
000001f0: a144 2f3e f838 423e e6f5 aebd 55eb 4dbd
00000200: 9b39 3abe feca 283e d365 863b 717a 1bbe
00000210: 98d7 4dbe 3ea1 76bd 932e 5fbe a030 773e
00000220: d899 c13d 4153 fa3d 3e24 023e 981b 55be
00000230: 73f9 a23d f172 0dbe 9208 09be 36f3 123e
00000240: 8939 17bd 3105 643e 76c1 0d3d 99fc 30be
00000250: c724 d0bd dbe4 613b e27c 933d 1549 ea3d
00000260: e883 15bd 80c9 f4bd e9ce 073e 1458 6bbe
00000270: cf9b d8bd c9c3 633e e1fa ad3d 50e4 07be
00000280: 394a a03d 3f00 95bd a1b6 64be 3160 503d
00000290: 7cdb 373d 0943 a8bd 5bd7 c13c 29d6 733e
000002a0: 7ec6 6b3e 5d73 ba3d cd1a 1d3e f3a2 b83d
000002b0: 46b6 ffbd 5f06 0c3e a803 2e3e 833e 3bbe
000002c0: 8aea 58be ac71 083e aefc b23c bd82 34be
000002d0: 4fca c0bd 4c43 813d acb5 453d d127 123e
000002e0: 8283 3a3d e6d3 483e ed19 44bc cb63 383e
000002f0: 8825 f2bd 6170 eebb e661 0d3e 34f3 1ebe
00000300: d4dc 67be bea7 593e 87b3 27be 21ee 403e
00000310: e903 6f3d 9e2d 1ebe dcbb 04bd 6e49 3c3e
00000320: 18db 8dbc 7481 123e ac57 2a3e 8134 59be
00000330: 4135 bebd 1f6c 6f3d 54f1 efbc 7bed 75be
00000340: ccf3 01bd 83b8 cdbc b182 a2bd 1db7 54be
00000350: d9aa 003e cf73 983d 07c0 a03d 5a26 51be
00000360: 06f1 2d3d 5424 5c3e f47f 8fbd eae3 09be
00000370: 986f 2e3e 7b6d 563e 59eb 3b3c 8344 28be
00000380: 8789 6ebe 0cc0 bfbd d37c 3abe cafc de3d
00000390: acb3 73be b75f 4a3d a405 6ebe cac7 7ebe
000003a0: 0598 f4bd d3fd 2a3e 4374 2dbe 93ae ca3d
000003b0: 939a 8cbd 8dc0 593d 3bfd 90bd 6e4d 8cbd
000003c0: 7b5d 0fbe d208 46bc 0e01 49be 14af db3d
000003d0: 7c5e 70be 1eb2 1dbd f738 74bd 56bc 603d
000003e0: 2fec 19be 5946 38bd 4cf1 ba39 d255 e4bd
000003f0: 6c1e c5b9 5dc7 fc3d 7eb0 12be a17d 11be
0.21473747 0.21014412 -0.031425994 0.018628877 0.19529234 0.10322521 -0.20040606 0.057064503
0.073888525 -0.1091623 0.08469342 -0.24704082 0.17810467 0.048626836 0.16050632 0.1373234
0.19752684 -0.065899245 0.20993485 0.03315718 0.07284078 0.1888457 0.017740063 0.19453602
0.07163844 0.15842895 0.19969593 0.030177284 -0.069585115 0.001038494 0.23542623 -0.062107172
0.2438079 -0.0062748906 0.06977194 0.00029049633 0.046513956 -0.008864032 -0.21921773 0.17003416
-0.2346101 -0.21029174 -0.08697406 0.2018382 -0.065050855 0.123289876 0.05816473 0.052575123
-0.22982596 -0.18538268 -0.23386402 0.21762133 0.12559544 0.09740766 0.19189908 0.21579704
-0.10777561 0.086417116 0.18028982 0.13791679 -0.13743524 -0.08940856 -0.08001585 -0.154552
-0.17251152 -0.02394503 0.21390836 0.20980686 -0.15982209 0.23330618 -0.13891594 0.24271539
0.09490429 -0.17797734 -0.18223898 0.07521531 0.12647039 -0.22669536 -0.05609156 -0.25024262
-0.013614485 -0.03679994 -0.23742689 0.2263741 -0.250775 0.1016466 -0.23476176 -0.08796558
0.084048 0.077537194 -0.0446952 0.18055478 0.10512012 0.06333447 -0.17448488 -0.16558833
0.042254 -0.20026228 0.18346901 0.004046556 -0.20467727 -0.16362295 0.034898616 -0.20232931
-0.17501526 -0.19324158 0.16291274 0.052483555 0.19751893 0.18262868 0.17065762 0.049382053
-0.17072092 0.24958128 0.22690628 -0.157667 0.13776155 -0.13717894 0.20414788 -0.11487986
-0.05979283 -0.015606441 0.031175593 0.051812753 0.17116024 0.18967044 -0.08542995 -0.05027326
-0.18186037 0.16483685 0.004101494 -0.15183426 -0.20101774 -0.060212366 -0.2179511 0.24139643
0.094531715 0.12222911 0.12709138 -0.20811307 0.07957735 -0.13813378 -0.13382176 0.1435059
-0.036920104 0.22267605 0.034608327 -0.17283858 -0.10163265 0.0034468684 0.07201554 0.114397205
-0.03650275 -0.119524956 0.13262524 -0.22982818 -0.10576593 0.22242655 0.08495117 -0.13270688
0.07826657 -0.072754376 -0.22335292 0.050872985 0.04488705 -0.08215911 0.02366226 0.23812164
0.23024938 0.09104035 0.15342255 0.09015455 -0.12485938 0.13674305 0.16993582 -0.18285565
-0.2118322 0.13324612 0.021849003 -0.17627998 -0.09413587 0.06311664 0.04826896 0.14273001
0.045535572 0.19612083 -0.011969072 0.18006818 -0.11823565 -0.00727658 0.13806877 -0.15522462
-0.22642833 0.21255395 -0.16377078 0.18840839 0.05835334 -0.15447089 -0.03240572 0.18387386
-0.017316386 0.14307195 0.16635007 -0.21211435 -0.09287501 0.05845272 -0.029289879 -0.24016373
-0.031726643 -0.025112396 -0.07935084 -0.20772977 0.12565173 0.07443964 0.07849126 -0.20424786
0.042466186 0.21498233 -0.07006827 -0.13465849 0.17034757 0.20940201 0.0114696855 -0.16432385
-0.2329465 -0.09362802 -0.18211679 0.108880594 -0.23799008 0.049407687 -0.23244339 -0.24880901
-0.11943058 0.16698389 -0.16938882 0.09896579 -0.0686542 0.053162146 -0.0707955 -0.06850706
-0.14000504 -0.012087064 -0.19629309 0.10726753 -0.23473543 -0.038499944 -0.05962464 0.05486711
-0.15031503 -0.044988964 0.00035656465 -0.111491814 -0.00037597434 0.12342713 -0.14325139 -0.1420808

fc1.bias f4 [128]
00000000: a8ca 70be b42e 3c3e 9a64 2b3e 42b2 acbd
00000010: 4ed2 d0bd 0ba2 273e cc3a 6abd cc41 4a3e
00000020: 4c56 763d 388b 78bd d2fc bcbd a99b 313c
00000030: 56e4 22be 4e27 ec3d 874e a93d 0e7d 18be
00000040: ab22 13be 86a6 1bbe 2cfb 4cbe 98f1 6bbe
00000050: 31b9 183e 6e79 0b3e fd41 163d f473 183d
00000060: dee2 6d3e 944c 47bd 0653 47bd 19a2 10be
00000070: 39a9 463e a4f3 653e bf4c c73d 8223 48be
00000080: 3d79 22be 7e46 42be d544 e8bd 8658 24bb
00000090: cbce afbd 37ba 42bd 3f9e 47be 6f72 c63d
000000a0: 4331 c13d e50e 4c3e 043e 14be 03e1 cabd
000000b0: 5654 303e a0ff 06be 1e4d 47be 1ec7 6fbd
000000c0: f4b2 7c3e 97d2 2fbc dc29 fcbd 9125 0a3d
000000d0: 3169 0a3e cb12 65be ba9d 3bbd e0a7 3f3d
000000e0: 5865 0dbe a340 b33d 052d 3e3e cc4d 64be
000000f0: 6ee6 1ebc b9e7 24be 34b0 25be f90c 40be
00000100: b4b1 3ebe 3639 973d 317b e53d 2373 573e
00000110: c9a2 4cbd 8d07 03bd f189 bebc 9f7d 693d
00000120: 82d5 7dbe 1eea f3bd 1341 333e eaaf 623d
00000130: ae61 123d b7ff 5fbe aba8 f53c 1a7f 183e
00000140: 80fe 6dbe cfe0 0abe 09c4 d6bd 6333 4dbe
00000150: 79de d5bd 22d0 ae3d 183b eebd eee2 77be
00000160: a98c 25be 39a0 e63c 2879 4ebd 0fcc 0ebe
00000170: c77a 4abb c638 61be 15a1 0d3e 09fe 5abe
00000180: 5afc 773e d323 27be f080 5cbc 4882 c5bd
00000190: 6669 55be 3136 cdbd 95f4 5cbe 6729 db3d
000001a0: 0177 c9bd da9f 6d3d 925b 213e 5876 3e3e
000001b0: c4a1 963d 93ea 43be c536 6cbe cf5f 2f3e
000001c0: a8f9 b2bc 1212 103e 5cd4 58bd 9440 50bd
000001d0: 38ac 3e3e 2e49 ac3d 5706 f73d 8ead c23d
000001e0: cf80 ecbd bd15 b9bd b79e 593e dbae 15be
000001f0: d314 1a3e cf46 e23d edd0 363d 9443 84bd
-0.23514807 0.18377191 0.16737595 -0.084324375 -0.101963624 0.16370408 -0.05718498 0.19751662
0.060140893 -0.060679644 -0.09227909 0.010840335 -0.15907416 0.11530934 0.08266931 -0.14891455
-0.14368694 -0.15200242 -0.2001769 -0.2304138 0.14914395 0.1362054 0.036684025 0.037219957
0.23231074 -0.048657015 -0.04866316 -0.14124335 0.19400491 0.22456223 0.09731435 -0.19544795
-0.15866561 -0.18972203 -0.11341254 -0.0025077178 -0.085843645 -0.04754087 -0.1949396 0.09689795
0.09433224 0.19927557 -0.14476782 -0.09906199 0.17219672 -0.1318345 -0.19463012 -0.058539502
0.2467764 -0.010731361 -0.123126715 0.033727232 0.1351669 -0.2237045 -0.045804717 0.046790957
-0.13808191 0.08752563 0.18571861 -0.22295302 -0.009698493 -0.1610402 -0.16180497 -0.18754949
-0.18622476 0.07383959 0.112051375 0.21040015 -0.04995993 -0.031989623 -0.023259135 0.057004567
-0.24788478 -0.11909889 0.17505293 0.055343546 0.035737686 -0.21874891 0.029987654 0.14892235
-0.23241615 -0.1356232 -0.104866095 -0.20039134 -0.10442824 0.08535792 -0.11632365 -0.2420766
-0.16166939 0.028152572 -0.050408512 -0.1394503 -0.0030895935 -0.21994314 0.13830979 -0.21385969
0.24217358 -0.1632226 -0.0134584755 -0.0964399 -0.20840988 -0.10020102 -0.21577676 0.10701256
-0.09837151 0.058013774 0.15757588 0.18599832 0.07355073 -0.19132452 -0.23067768 0.17126392
-0.021847561 0.14069393 -0.052936897 -0.050842836 0.18620384 0.084123954 0.12061756 0.09505759
-0.11548006 -0.090373494 0.21251951 -0.14617483 0.15047006 0.11048662 0.04463284 -0.06458202

fc2.weight f4 [128, 128]
00000000: e9fe 873d cacc 793d c9eb 9cbc 648b 84bd
00000010: 8566 f53b 322c 6d3d 0bb5 ac3c b89e eb3c
00000020: da12 36bc 6a45 8fbd a36a 26bd 2b73 3a3d
00000030: 8690 193d 4534 943d 8b75 9b3d 9f75 7abd
00000040: a9ab 493d 79e1 333d 836d 813c 2d8f bc3c
00000050: 5018 5dbd 1b22 30bd b134 fabc 8608 fabc
00000060: db43 51bc e8aa bd3b 17c1 793b 09a6 0c3d
00000070: f177 4a3d 316b 4ebd 9c42 413d d3b2 79bc
00000080: 8537 f13c 1848 133d 5ea3 683d 5701 36bd
00000090: da93 dbbc 1976 acbd 28cd 17bd fc54 923d
000000a0: 75e6 c6bb 217a a53d cca6 1a3d c9e3 9ebd
000000b0: 18ca 513d 134a 883b 456b 99bd d908 dc3c
000000c0: dd73 583d dda2 023b 42b4 93bd 7fea 89bb
000000d0: f96d 30bd 60d5 6bbd 3ba4 2cbd e92a 5dbd
000000e0: 5267 87bd 4c7c 5fbc cc51 91bd aea7 423d
000000f0: 65c7 0a3d 9d4c acbd 18bd 64bd c153 7e3d
00000100: d36d 973b a583 c53b 80ff aa3d c947 20bd
00000110: 072b 833d fc9d 1ebd c148 883c 35f2 4ebb
00000120: 2f7f 00bd 2ec2 a13c b8bb 9b3d 761d 5dbc
00000130: 8589 12bd eeb3 9a3d b87d b3bd 2cec 9f3d
00000140: 7ca0 84bc e134 80bd 07b6 15bd f871 5ebd
00000150: 7c19 623c 0e70 9b3b ccb0 9abd 3b62 6ebd
00000160: acdc a23c 46d0 98bd 0cdc 34bc 949c 3e3b
00000170: 2243 14bd 4716 38bc 9281 ac3d e367 3ebd
00000180: bae5 5e3c 75ff 37bc 8385 04bb 4c53 73bd
00000190: d1c4 5e3d 88f0 8d3d 06f4 98bd 50a2 31bd
000001a0: 8326 b13d 8973 aabd 7e53 94bb c547 583d
000001b0: faee a6bd 2eae 4e3d aa48 95bd 08ec 943d
000001c0: 302c e53a ad98 5c3a 0e62 52bd ff09 d33a
000001d0: 3af6 b5bd 6047 b6bc 4da8 9fbd f552 80bd
000001e0: 28dd 9bbd 100c a03d 0cb8 93bd 2c13 a63d
000001f0: ee4b c13c 4c6f 063c 5c08 89bd 4ab9 253c
00000200: 7c32 b6bd 9000 623d bbe5 5a3d 4e00 7e3b
00000210: fcdd 80bd cca2 26bd ea95 06bd 4278 843d
00000220: 2ee9 833d d605 3f3b fafc 9d3d 3813 4abc
00000230: c3b7 9b3b 87fa 8abd 5995 afbc 5791 aebd
00000240: 7bdd a23d 008d 663d be57 3dbd 240c 99bd
00000250: 629e 6cbd 5779 943d b61b 84bd 49f3 103d
00000260: 6461 92bd 3e57 4e3d 4745 d93c ad41 92bc
00000270: 4a58 d83c 0f88 0cbd d2d8 81bd 40f8 88bd
00000280: 730e 1cbc d140 8a3d b850 21bc 978e efbc
00000290: 3ddf 593d d812 8bbd f62b 5cbd 7c2c 2e3d
000002a0: ca17 853c dfc9 7bbb ee51 efbc 402c 6bbc
000002b0: 31d9 97bc 90a2 9bbc 93ef 5ebd 7ac7 983c
000002c0: 332d 2fbd 04e4 32bc 7a6d a8bd 933a d739
000002d0: 3001 5abc 30b0 a0bd ff85 fb3c 16ae c9bc
000002e0: d299 8f3d 7dd4 edbc 6236 babc 973f 96bd
000002f0: c3e2 9e3d fcc4 a83c bf22 dcbc fa85 e23c
00000300: 14e7 ad3d 3e6d a7bd 2f62 47bd 1b4e b5bd
00000310: 41ae 923c 8a48 13bd 376d 8a3d 7545 903d
00000320: 495b 873a 5255 9cbc 0bbb 33bd f314 2ebd
00000330: a5ee 0fbd ba9d 573d c6eb abbd cfdb 963d
00000340: 6251 88bd ccec e5bc 58b1 0fbc 53ef fbbc
00000350: 3c6f 903d 7e9d 4d3d 9838 633c c49b 973c
00000360: d3a8 3e3d 58fb b2bd c574 c73c a076 873d
00000370: de41 75bd 0348 673d d25f 62bd 63c4 14bd
00000380: e6bd e5bb d821 6f3d 89ae 093d 1a75 b8bd
00000390: 92d1 91bd 6bed 8c3d 5639 5d3d 85cb c73c
000003a0: d3f4 83bd b45c eebc 77ba 92bd 5ccb a23d
000003b0: 8fb7 8ebd 1153 c6bc 364f 353d 0d77 9abd
000003c0: ee78 26bb 1a61 043c 7e88 9abb 03aa 5bbd
000003d0: 6c25 c43c 9fd6 8a3d 86d5 703d 0953 8a3d
000003e0: 4c5f 72bc 3212 4bbd fb85 6a3d 7f87 783d
000003f0: b513 ac3d e8c8 9fbd 418c 24bd 42ed 35bb
0.06640417 0.060986318 -0.0191554 -0.06471899 0.007489028 0.057903476 0.021082422 0.028762206
-0.011112893 -0.069956616 -0.04062904 0.04551999 0.037491344 0.07236532 0.07590779 -0.06114733
0.049235974 0.0439162 0.01579929 0.02301749 -0.053978264 -0.043001276 -0.030542703 -0.030521642
-0.012772526 0.005788196 0.0038109475 0.03433803 0.04943079 -0.050395194 0.047182664 -0.015240389
0.02944542 0.035957426 0.056796424 -0.04443487 -0.0268039 -0.08420963 -0.037060887 0.07145116
-0.006069953 0.08079935 0.037756726 -0.0775829 0.051218122 0.004159221 -0.07491163 0.026859688
0.05284487 0.00199335 -0.07212116 -0.0042088623 -0.043073628 -0.057576537 -0.04214881 -0.053996
-0.06611504 -0.0136404745 -0.0709568 0.047523193 0.033881564 -0.0841305 -0.055844396 0.062091593
0.0046212464 0.006027656 0.08349514 -0.03913096 0.06404691 -0.038724884 0.016636254 -0.0031577472
-0.03137129 0.019745912 0.07604164 -0.013495794 -0.03577568 0.0755385 -0.08764213 0.07808718
-0.016189806 -0.06260086 -0.036550548 -0.054307908 0.013800021 0.0047435826 -0.075532526 -0.05819915
0.019880615 -0.074616 -0.011038791 0.0029085027 -0.036196835 -0.01123578 0.08423151 -0.046485793
0.013604576 -0.011230339 -0.002022118 -0.05940561 0.054386918 0.06930643 -0.07468419 -0.043367684
0.08649924 -0.08322818 -0.0045265546 0.05280282 -0.0815105 0.05045908 -0.0728925 0.07271582
0.0017484482 0.00084150844 -0.051363043 0.0016101002 -0.088848546 -0.022250831 -0.07795773 -0.06265823
-0.076105416 0.07814801 -0.072128385 0.081091255 0.023595776 0.008205246 -0.066910475 0.010114977
-0.08896348 0.055176318 0.053441744 0.0038757506 -0.0629234 -0.0406826 -0.032857813 0.0646825
0.0644096 0.0029147766 0.07714267 -0.012333684 0.0047521307 -0.067860655 -0.02143352 -0.08523815
0.079524 0.05628681 -0.046226256 -0.07473019 -0.057768233 0.07249706 -0.06450598 0.035388265
-0.07147482 0.05037617 0.026522292 -0.017853582 0.026409287 -0.034309443 -0.06340183 -0.06687975
-0.009524929 0.06750644 -0.009845905 -0.029242797 0.053191412 -0.067907035 -0.053752862 0.042522892
0.016246695 -0.0038419885 -0.029213872 -0.014353812 -0.018536182 -0.018998414 -0.054427695 0.018649805
-0.042767715 -0.010918621 -0.08224006 0.00041051637 -0.013305947 -0.07846105 0.030703543 -0.024619143
0.07011761 -0.029031986 -0.02273101 -0.073363476 0.07758095 0.020601742 -0.026872037 0.027651776
0.0849134 -0.08175133 -0.04867762 -0.08852788 0.017905356 -0.03595785 0.06759112 0.07044498
0.0010326888 -0.019083653 -0.04387955 -0.042500447 -0.0351397 0.052640654 -0.083945796 0.07366144
-0.066561475 -0.028067015 -0.008770309 -0.030753767 0.07052466 0.050199024 0.0138684735 0.018506892
0.046547722 -0.08739346 0.024347672 0.06614423 -0.05987727 0.05646516 -0.055267163 -0.0363201
-0.007011163 0.058381885 0.033613715 -0.0900671 -0.071200505 0.068812214 0.054009758 0.024389038
-0.06443181 -0.029096939 -0.071644716 0.07948944 -0.06968605 -0.024209531 0.044264995 -0.075422384
-0.002540167 0.008079791 -0.004715978 -0.053628933 0.023943625 0.06779217 0.05879738 0.06754119
-0.014793228 -0.0495779 0.05725668 0.060676094 0.08402196 -0.07801992 -0.04017282 -0.0027759825

fc2.bias f4 [128]
00000000: 1519 85bd 9bc2 78bc 9254 4fbd fbd1 a8bd
00000010: 3d83 1b3d 24a6 2a3d 0c64 9fbd 33e4 a63d
00000020: accd 313d b283 90bd f6b2 283c e39e fbbb
00000030: e007 9fbd ce94 183d ce86 95bd 62ef 433d
00000040: 477d 323d a095 96bc 71a8 fb3b 27d6 7c3d
00000050: 73e0 533d 350b e33c e37a b3bc a555 66bc
00000060: 3edc 963b cad7 7fbd f2f6 863d 2102 6c3c
00000070: d7d8 213d 07d0 9f3c c3b4 7f3c 3985 a2bc
00000080: 43ee ea3c da2d ae3a 0290 61bd b11f 593d
00000090: 1aeb 81bc 8420 383d b8cf 0dbd e990 d43c
000000a0: f570 bdbd ada0 8b3d aac6 d13c e49e 54bd
000000b0: 6e67 503d 309f c13c be96 67bd 0895 a93c
000000c0: 11ba 193d e142 65bc fb52 363d 9d9d 623d
000000d0: bead 043d 1ec4 5c3c 9bcc 26bd 3c91 053d
000000e0: 657f e33b 1382 9cbd 5b6c 1d3d 6f72 0a3d
000000f0: d1b7 1bbc 6791 b7bd 33f2 d53c 5fc9 283d
00000100: 5aee 003d 8d88 183d f91b 1b3d 87b3 e03c
00000110: 347d 8ebd 1c54 203d 6e15 70bc af7e bbbd
00000120: 3da4 d0bc a788 903d 8c96 1f3c cd1c 1fbd
00000130: 9521 073d 694e 51bc 2893 99bc 3baf 923d
00000140: 63df 95bd ce97 36bd 8cb1 4b3d 0d06 003d
00000150: 66f2 81bd 1050 29bd 1dc5 20bc 1b4f bcbd
00000160: 6712 1fbc 79a2 a23c e606 83bd f273 9fbd
00000170: f58c 77bd 282d d93a d7d8 90bd 8bc7 a43d
00000180: 6a27 893d e4df 813c 952c 47bd ade3 d23b
00000190: 4feb 623d 2aae b5bc f8ef 833d 1347 35bd
000001a0: 5f5f 103d a2ab 993d bf01 17bb 5dbc 8f3d
000001b0: 0b4c 55bd e274 ae3d 39a9 8fbd f681 f2bc
000001c0: 145d 29bd 24d9 8c3d ef1e c4bc 3fad 8cbd
000001d0: f6e3 863d 53cf b0bc 8c1a 783d c405 75bc
000001e0: d582 07bd 7f2c f83b a3af aebd c530 f23c
000001f0: 11a8 553d 683b b43c a38e b0bd cd49 1b3d
-0.06498925 -0.015183116 -0.050617762 -0.082431756 0.037966955 0.04166235 -0.07782754 0.08148994
0.043409035 -0.07056369 0.010296574 -0.007678853 -0.07765174 0.037251286 -0.073011026 0.047835715
0.043576505 -0.018381894 0.007679992 0.06172767 0.051727723 0.027715305 -0.021909183 -0.014058505
0.0046038916 -0.06246165 0.0659007 0.014404804 0.039513435 0.019508375 0.015607062 -0.019838916
0.028678065 0.0013288811 -0.055068977 0.05300874 -0.015859175 0.044952884 -0.034621924 0.025948005
-0.092500605 0.06817756 0.025607426 -0.051909342 0.05087989 0.023635477 -0.056540243 0.020700946
0.037530962 -0.013992996 0.04451273 0.055326093 0.032392256 0.013474492 -0.04072247 0.03260921
0.006942677 -0.07641997 0.038433414 0.03380054 -0.009504274 -0.0896328 0.026116466 0.041207667
0.03147731 0.0372396 0.037868474 0.027429355 -0.06957474 0.039142713 -0.014653547 -0.09155022
-0.02546894 0.07057314 0.009740483 -0.038845826 0.03299101 -0.012775042 -0.018746927 0.07162329
-0.07317998 -0.044578366 0.04972987 0.03125577 -0.06345062 -0.04133612 -0.0098126205 -0.09194776
-0.009708977 0.019852864 -0.063978 -0.07785787 -0.06043716 0.0016569244 -0.07072609 0.08045872
0.06696971 0.01585383 -0.0486265 0.0064358325 0.05540019 -0.022177774 0.06442255 -0.044257235
0.035247203 0.075034395 -0.0023041812 0.07018349 -0.052074473 0.085183874 -0.070146985 -0.029602986
-0.04134853 0.06877354 -0.023940532 -0.068689816 0.06586449 -0.021583235 0.060572192 -0.014954988
-0.033083756 0.0075736637 -0.08529594 0.02956427 0.052162234 0.022000983 -0.08620956 0.03791218

fc3.weight f4 [1, 128]
00000000: 6c3b 303d 0d2b f9bc 0eaf 7abc f3f1 afbc
00000010: 135e 0d3c 98b6 40bc 655c 963c 4482 b6bb
00000020: 9a10 803d dbea 30bc 3f0a 173d 28bf 463d
00000030: f4b7 333d f9e1 aabc da49 9ebd eb2d 843c
00000040: c9ba ae3c f638 cdbb fb32 3d3d 1f49 4638
00000050: fa58 e93c b474 eebc 359a ffbb ba9f a03d
00000060: fd8f fdbc 8f66 3fbd 16df 46bc 8e81 b4bb
00000070: 16f9 13bc 06a9 e1bb a39f 993c d9e8 15bd
00000080: 1d2c 883b 5fde bfbc ebea ccbc ea69 0b3b
00000090: 334b e03c 7264 31bd 95cd 9abd 2086 993c
000000a0: d4be 14bd ba31 9f3c cfeb 323d b6fd 743c
000000b0: c0f5 ed3c a3ee 3f3d 8ed2 80bc 3e28 003d
000000c0: e174 6dbb 113c 29bd a2e2 f0bc 20f1 3a3c
000000d0: 78b1 093c 4393 2a3c b971 0d39 dcf6 ff38
000000e0: 1abd 963b da22 a8ba 3fa3 653d 726d 86bd
000000f0: d559 68bd a03e 31bd 5d6e 9b3d ff35 5a3b
00000100: 1810 3cbc e04c db3c 9a4e 2fbc 14d5 b1bc
00000110: 7f9f d4bc 271f 993c df45 ec3c 4d55 f6bc
00000120: eea2 843d a2d0 a7ba 2b16 e7bc 0927 7c3d
00000130: 6364 23bc ceb8 bb3c ff4d 66bd 40ac 04bd
00000140: 6e02 7ebd 6065 073c a8aa a33d 5351 babc
00000150: a4f0 8fbd 1344 b83c f319 8c3b 93af 4ebd
00000160: aa21 41bd 5703 483d 977b 81bc 7b5f ce3c
00000170: 314e 2dbd cad4 423d 97b2 2ebc 0fdc 293d
00000180: 2709 93bc c135 d3bc 843c 4cbd 0652 153d
00000190: 919f 303d b71d 5b3c 0eac 0e3d f044 333d
000001a0: 8c1f 53bd ff53 cc3a 168f 8bbb 5448 293c
000001b0: 886e 8cbd a7bd fe3c 15aa 04bd e4ab 993d
000001c0: 67a8 8d3c d8fa 0b3d 97e1 30bd 00c8 893d
000001d0: ffc4 813d 7a65 893d 61ae 43bd 3b0c cfbc
000001e0: 42bd 123d 7918 b33c 7900 03bc 3006 393d
000001f0: 15fc b2bc 4615 02bc e201 143c 3eda 22bc
0.04302542 -0.030416036 -0.015300525 -0.021477675 0.008628386 -0.011762284 0.018354604 -0.005569728
0.062531665 -0.010798181 0.036875006 0.048522145 0.043876603 -0.020859705 -0.0772893 0.016135177
0.0213293 -0.006262894 0.046191197 4.7274978e-05 0.02848481 -0.029108383 -0.0078003653 0.078429654
-0.030952448 -0.046728667 -0.012138149 -0.005508608 -0.009031555 -0.0068866042 0.018752879 -0.036599014
0.0041556493 -0.023421464 -0.025014361 0.0021272846 0.027379608 -0.043308683 -0.07558743 0.018740714
-0.0363148 0.019432891 0.043681916 0.0149530675 0.029047847 0.04685844 -0.0157254 0.031288378
-0.0036232995 -0.04131705 -0.029404942 0.011410028 0.008404128 0.0104110865 0.00013489173 0.00012205329
0.0046001794 -0.0012827769 0.056063887 -0.06563844 -0.056726296 -0.043272614 0.075894095 0.0033296344
-0.011478446 0.026770055 -0.010699892 -0.021708049 -0.02595496 0.018691612 0.02884191 -0.030069971
0.06476389 -0.0012803266 -0.028208813 0.061560664 -0.0099726645 0.02291527 -0.056226727 -0.032390833
-0.062014036 0.008263916 0.079915345 -0.022743857 -0.070283204 0.022493398 0.0042755543 -0.05046041
-0.047151245 0.04883131 -0.015806003 0.025192013 -0.042310897 0.047566213 -0.010662696 0.04146963
-0.0179487 -0.025782468 -0.0498624 0.036455177 0.043120924 0.013373784 0.034832053 0.043766916
-0.051543757 0.0015588998 -0.0042590005 0.010332186 -0.0685702 0.031096293 -0.032388765 0.07503489
0.017292215 0.03417477 -0.04318389 0.067276 0.06336402 0.06708808 -0.047773723 -0.025274387
0.03582502 0.021862255 -0.007995718 0.045171916 -0.021848718 -0.007939642 0.009033652 -0.009939728
